timeseries/pretrained/predictnet_e500.pth (torch_old, 6126 bytes, 6 tensors)

rnn.weight_ih_l0 f4 [32, 4]
0	0x3e7a6de1	0.24455978
1	0x3d248c27	0.040172722
2	0x3e1c0265	0.15235288
3	0x3d32dedc	0.043669567
4	0xbe36da98	-0.17856824
5	0xbd6eb7e2	-0.058280833
6	0xbe5fe2fd	-0.21863933
7	0xbd08fe22	-0.033445485
8	0x3ddf95de	0.10917257
9	0x3bd51100	0.0065022707
10	0x3dac8d4e	0.08425389
11	0x3bcb5660	0.006205365
12	0x3df47ee9	0.11938269
13	0x3b32d569	0.0027287847
14	0x3ded1537	0.11576312
15	0x3ddac53f	0.10682153
16	0x3c326e20	0.010890514
17	0xbe1c2a98	-0.15250623
18	0x3b317d00	0.0027082562
19	0x3e2cf853	0.16891603
20	0x3e39e03e	0.18151948
21	0x3e958cbb	0.2920893
22	0x3ebe35a1	0.3715029
23	0x3ed5899f	0.4170656
24	0xbd9affce	-0.07568322
25	0xbe71a001	-0.23596193
26	0xbd896ad8	-0.06709832
27	0xbe3d135a	-0.18464413
28	0xbd701faa	-0.058623947
29	0xbdcbef5f	-0.09957766
30	0x3e1a0101	0.15039445
31	0xbe20f23e	-0.15717408
32	0x3bb6a840	0.005574256
33	0xbb5a62c0	-0.003332302
34	0xbc3a0580	-0.01135385
35	0x3dd12162	0.102114454
36	0xbe753368	-0.23945391
37	0xbe6c63c8	-0.23084939
38	0xbc09fab7	-0.0084215915
39	0xbc112075	-0.008857836
40	0xbc235a30	-0.009970233
41	0x3dcd8a5a	0.10036154
42	0x3e2e3893	0.17013769
43	0x3e0ba513	0.1363719
44	0x3e7a115b	0.24420683
45	0xbcf69b41	-0.030103328
46	0x3d9c9026	0.07644682
47	0x3da3b3bd	0.07993267
48	0xbd8baa80	-0.0681963
49	0x3c3c6bf0	0.011500344
50	0xbcc799b0	-0.024365276
51	0xbdf44c2b	-0.119285904
52	0xbe761489	-0.24031271
53	0xbe6c4433	-0.23072891
54	0xbd544819	-0.05182657
55	0x3bdf2f4c	0.006811058
56	0xbe2b4c82	-0.16728404
57	0x3e142973	0.14468937
58	0x3e08d139	0.13361062
59	0xbe1597c4	-0.14608675
60	0x3e5a7c1e	0.2133641
61	0x3dc8c067	0.09802323
62	0x3e18309b	0.14862292
63	0x3d224bef	0.039623197
64	0xbdf93de6	-0.12170009
65	0xbe45a7d5	-0.19302304
66	0xbe1eb61f	-0.15499161
67	0xbdd08173	-0.101809405
68	0x3ee35f2a	0.44408542
69	0x3e46507a	0.19366637
70	0x3e9d13a1	0.30679038
71	0x3ead4901	0.3384476
72	0x3e22128f	0.15827392
73	0x3decd5ee	0.11564241
74	0xbdec35ac	-0.115336746
75	0x3b75e300	0.0037519336
76	0x3bba7dc0	0.00569126
77	0x3d683e6c	0.056700155
78	0x3e20f7ff	0.15719603
79	0x3defa90a	0.117021635
80	0x3d4bbf94	0.04974325
81	0xbe1d418a	-0.15357032
82	0xbe0b0c60	-0.1357894
83	0xbdc045ea	-0.09388335
84	0x3d9dfa1f	0.077137224
85	0x3bdd5691	0.0067547043
86	0xbe18acd0	-0.14909673
87	0xbe20d9c5	-0.15708072
88	0x3d108b9e	0.0352894
89	0xbdc97a7b	-0.098378144
90	0xbe899c4a	-0.26877052
91	0xbe77d16a	-0.24200979
92	0xbeb6834a	-0.3564704
93	0xbe8787a9	-0.26470688
94	0xbe02b8c7	-0.127658
95	0xbe073f8d	-0.13207836
96	0xbd470e88	-0.048597842
97	0xbded2f45	-0.115812816
98	0x3df9574e	0.12174855
99	0x3e1c0057	0.15234505
100	0xbe3cd626	-0.18441066
101	0xbe841896	-0.25800008
102	0xbd1a84ec	-0.03772442
103	0xbd9cb732	-0.07652129
104	0xbda1929d	-0.078892924
105	0x3e18be4d	0.14916344
106	0x3c458226	0.012054956
107	0x3e667173	0.22504215
108	0xbe515fc6	-0.20446691
109	0xbe926d99	-0.2859924
110	0xbe23c3cf	-0.15992664
111	0x3ac7e15e	0.001524966
112	0x3e3349ca	0.17508617
113	0x3e0e12ac	0.1387431
114	0x3e1aad96	0.1510528
115	0x3b87c5b4	0.004143441
116	0xbddd75f7	-0.10813516
117	0xbdfb06b4	-0.12257138
118	0xbcc19580	-0.023630857
119	0xbdb6ba7c	-0.08922288
120	0xbdee129a	-0.11624642
121	0x3ca153b8	0.01969324
122	0xbe0e54a2	-0.13899472
123	0xbdaa5b1f	-0.08318161
124	0xbe40e1d6	-0.1883615
125	0xbcdad48f	-0.026712684
126	0xbe3f5c51	-0.1868756
127	0xbd69a027	-0.0570375

rnn.weight_hh_l0 f4 [32, 32]
0	0x3dc51135	0.096224226
1	0xbc8380a6	-0.016052555
2	0xbb34fc1d	-0.0027616092
3	0x3e87a37a	0.2649191
4	0x3e92d1d8	0.28675723
5	0x3e200547	0.15627013
6	0xbe3a5fee	-0.18200657
7	0xbcf021af	-0.029312937
8	0xbcf07984	-0.029354818
9	0xbe911786	-0.2833826
10	0x3e3b4b13	0.18290357
11	0x3dd486e2	0.10377289
12	0xbd855d5e	-0.06511949
13	0xbd86e470	-0.0658654
14	0xbe8ccfad	-0.27502194
15	0x3e9dbd8f	0.30808684
16	0xbe121a67	-0.14267884
17	0xbd0df66c	-0.034658834
18	0x3e6f7dc8	0.23387825
19	0x3e9b8f50	0.30382776
20	0xbe5b30fa	-0.21405402
21	0xbc564168	-0.0130771175
22	0x3e45ded5	0.19323285
23	0x3d03a122	0.03213609
24	0x3c991f32	0.018691633
25	0xbcfa09bf	-0.030522225
26	0xbdd681a8	-0.10473949
27	0xbc9d7c78	-0.01922439
28	0x3e4793d3	0.19489984
29	0xbe41d019	-0.18927039
30	0xbe86f42d	-0.26358166
31	0xbce7d35f	-0.028299032
32	0x3dd55551	0.104166634
33	0x3da8ec86	0.08248238
34	0x3d2a28bb	0.04154275
35	0xbe1e3d78	-0.15453136
36	0xbe53667f	-0.20644568
37	0xbdd0cbe4	-0.10195139
38	0x3d916a90	0.07100403
39	0x3e7921c6	0.2432929
40	0xbd731af3	-0.059351873
41	0x3d72c19d	0.059266675
42	0xbe49caeb	-0.19706313
43	0xbe7a5f44	-0.24450403
44	0x3e08a582	0.13344386
45	0x3e0b0ae3	0.13578372
46	0x3ddc8286	0.10767083
47	0x3d404341	0.04693914
48	0x3ddfb6bf	0.10923528
49	0xbd4a9099	-0.049454305
50	0xbe825a79	-0.2545965
51	0xbe58e296	-0.21180186
52	0x3cb5e2b0	0.02220282
53	0xbe54e239	-0.20789422
54	0xbe4443ab	-0.19166438
55	0xbd8fe7c8	-0.07026631
56	0xbd68fdec	-0.056882784
57	0x3e74d16a	0.2390801
58	0x3e79e2ae	0.24402878
59	0x3d25a2fe	0.040438645
60	0xbaf41711	-0.0018622597
61	0x3e91aa57	0.2845027
62	0x3e719eec	0.2359578
63	0x3e90c408	0.2827456
64	0xbdc234ee	-0.09482752
65	0xbdb35236	-0.08755915
66	0xbe088e0e	-0.1333544
67	0x3d781580	0.06056738
68	0xbe0102ff	-0.12598799
69	0x3dd73cb6	0.105096266
70	0x3de0e016	0.10980241
71	0xbdd3f998	-0.103503406
72	0xbe1813b9	-0.14851274
73	0x3d8f22dc	0.06989071
74	0xbdd8e6e8	-0.10590917
75	0x3e21d9a9	0.15805687
76	0xbe156706	-0.14590082
77	0x3e1ebcad	0.15501662
78	0x3d98555e	0.074381575
79	0xbe15f05d	-0.14642473
80	0x3e196b93	0.14982443
81	0xbdbad13e	-0.09121941
82	0xbd283dc8	-0.041074544
83	0xbe19fbd6	-0.15037474
84	0xbb394600	-0.0028270483
85	0x3e17982d	0.14804144
86	0x3e265425	0.16243036
87	0xbd2f5684	-0.042807117
88	0x3d0067a4	0.03134884
89	0xbe12db8f	-0.14341567
90	0x3e08b8db	0.13351767
91	0xbdbf2265	-0.09332732
92	0x3e120baf	0.1426227
93	0xbdbb1d2e	-0.09136425
94	0xbd1ef7a8	-0.038810402
95	0x3e1eba15	0.15500672
96	0x3df6d48c	0.12052259
97	0xbbd9c7e9	-0.0066461456
98	0x3e8a1f39	0.26976946
99	0xbd650cb6	-0.055920325
100	0x3e84e1f1	0.2595363
101	0xbd40cc04	-0.047069564
102	0xbe1246a4	-0.1428476
103	0xbe894537	-0.2681062
104	0x3e8d319f	0.2757692
105	0xbda964bc	-0.08271167
106	0x3e7a11e3	0.24420886
107	0x3e498cbd	0.19682594
108	0xbd1323fd	-0.035922993
109	0xbd005191	-0.031327788
110	0xbe8173c1	-0.25283626
111	0x3e4c9cc8	0.19981682
112	0xbcf06b54	-0.029348053
113	0x3d544a43	0.051828634
114	0x3e2cd110	0.16876626
115	0x3d1388f5	0.036019284
116	0xbe492a63	-0.19645076
117	0x3e1a1340	0.15046406
118	0x3cfd525d	0.030923063
119	0x3e880ee3	0.26573858
120	0xbd75bbbd	-0.059993494
121	0xbe760954	-0.24026996
122	0xbe480441	-0.19532873
123	0xbd2d4fdb	-0.042312484
124	0x3e74a9df	0.23892926
125	0xbd5a1eaf	-0.05325192
126	0x3d812d54	0.06307474
127	0xbe8aebcb	-0.2713302
128	0x3ddaac9a	0.106774524
129	0xbcb63aa8	-0.022244766
130	0x3da1067a	0.078625634
131	0xbd86a06b	-0.06573566
132	0x3c8a1ee8	0.01686044
133	0xbcfe5170	-0.031044692
134	0xbe0e6a19	-0.1390766
135	0xbe12121f	-0.14264725
136	0x3cb54100	0.022125721
137	0xbdaa8ad1	-0.083272584
138	0xbde465cf	-0.11152231
139	0x3c6c3fc0	0.014419496
140	0xbdd10ee7	-0.102079205
141	0xbe30a3aa	-0.17249933
142	0x3dcc6eb6	0.09982054
143	0x3e1c4849	0.1526195
144	0xbe151666	-0.14559326
145	0xbd2ec20c	-0.042665526
146	0x3d0d3fa8	0.034484535
147	0x3d5facdc	0.05460821
148	0xbdd40eeb	-0.10354408
149	0x3dea229a	0.11432381
150	0xbcb2a228	-0.021805838
151	0xbe26a552	-0.16274002
152	0x3e192003	0.14953618
153	0x3de4df0a	0.11175354
154	0xbd168a5c	-0.036753044
155	0xbdbfd0eb	-0.0936602
156	0x3d7dbcb4	0.06194754
157	0xbd9b85f8	-0.07593912
158	0xbe27b320	-0.16376925
159	0x3d08236c	0.033236906
160	0x3e38c68b	0.18044488
161	0xbe137914	-0.14401656
162	0x3e420dad	0.1895053
163	0x3e4ab09f	0.19793938
164	0x3e4ff02d	0.20306464
165	0x3d867ee5	0.06567172
166	0xbdde3426	-0.1084979
167	0xbd606934	-0.05478783
168	0x3e2b10e3	0.1670566
169	0xbe30fd3c	-0.17284101
170	0x3e83ecd2	0.25766617
171	0x3e38a553	0.18031816
172	0x3c4c97ad	0.012487334
173	0xbb3997dc	-0.0028319275
174	0xbe32d62b	-0.17464511
175	0x3d988b84	0.074484855
176	0xbded6e9d	-0.115933634
177	0x3ca26e6d	0.019828046
178	0x3d32dd94	0.043668345
179	0x3e5cc599	0.21559753
180	0xbe1108c9	-0.14163508
181	0x3cd1e92a	0.025623877
182	0xbd9057a9	-0.0704797
183	0xbe00140e	-0.1250765
184	0x3e1bd97b	0.15219681
185	0x3d39925d	0.0453056
186	0x3ca5cdc5	0.02023972
187	0xbe5f4e72	-0.21807268
188	0xbdb2ebc0	-0.08736372
189	0xbd5a2730	-0.05326003
190	0x3daa6d05	0.08321575
191	0x3d4372b4	0.04771681
192	0x3e50ff1e	0.2040982
193	0xbda95bb8	-0.08269447
194	0xbdf7d056	-0.12100284
195	0xbdc92dad	-0.09823165
196	0x3ce81079	0.028328167
197	0xbddb767b	-0.10715958
198	0x3e0079b4	0.12546426
199	0x3e433e4c	0.19066733
200	0xbde5ed82	-0.11226942
201	0x3e416b46	0.18888578
202	0x3dc4cf9a	0.09609909
203	0xbd9ad5e2	-0.07560326
204	0x3c36d6f3	0.011159646
205	0x3def61bf	0.116885655
206	0x3d5a58c6	0.053307317
207	0xbe3e3617	-0.18575321
208	0x3e169c82	0.1470814
209	0xbde96748	-0.113966525
210	0xbdd5fe6b	-0.10448917
211	0xbde74e3f	-0.11294221
212	0x3e410ae0	0.18851805
213	0x3d22a922	0.03971208
214	0xbd983e57	-0.074337654
215	0xbe003355	-0.12519582
216	0xbe14d109	-0.14532866
217	0x3e1625ea	0.146629
218	0x3dc95cbc	0.09832141
219	0xbdb3c4a7	-0.08777743
220	0xbe54fa66	-0.20798644
221	0x3c1581d3	0.009125191
222	0x3d3a05d5	0.045415718
223	0x3e383cbc	0.17991918
224	0xbde9381b	-0.113876544
225	0xbcadbee8	-0.021209195
226	0x3da12cc2	0.07869865
227	0x3ddeac46	0.10872702
228	0xbe1d87f8	-0.15383899
229	0x3cb40f38	0.021979913
230	0xbd9e0c4f	-0.077171914
231	0x3e2f6373	0.1712778
232	0xbdadde10	-0.08489621
233	0xbc13be60	-0.009017557
234	0x3db3c19e	0.08777164
235	0x3a6ca900	0.00090278685
236	0xbd823ef5	-0.06359664
237	0xbd7e6c5c	-0.06211506
238	0xbb9bd3c0	-0.004755467
239	0xbe27bba4	-0.16380173
240	0xbd458914	-0.04822643
241	0xbe1a7c6e	-0.15086529
242	0xbbbe2480	-0.005802691
243	0x3e0243d1	0.12721182
244	0xbd909c66	-0.07061081
245	0x3e11a191	0.14221789
246	0x3db8c236	0.09021418
247	0xbbb73300	-0.0055907965
248	0x3d04be6c	0.032408163
249	0xbe284bae	-0.1643512
250	0xbe00dd60	-0.12584448
251	0xbde847b1	-0.11341799
252	0xbd96c227	-0.0736125
253	0xbe217b26	-0.15769634
254	0x3d3afe50	0.045652688
255	0xbd892dd7	-0.066981964

rnn.bias_ih_l0 f4 [32]
0	0x3e037876	0.12838921
1	0xbd8e7436	-0.06955759
2	0xbc3d4d90	-0.011554137
3	0x3db9ff4d	0.09081898
4	0x3e1e1f75	0.15441687
5	0x3de2235a	0.11041899
6	0xbe87100f	-0.2637944
7	0x3c92bbf0	0.017911881
8	0xbd5b2048	-0.053497583
9	0xbe56d6e3	-0.2098041
10	0x3de6974a	0.11259325
11	0x3ceebc3e	0.029142495
12	0x3de70cea	0.1128176
13	0x3c241b49	0.010016271
14	0x3d2bad94	0.041913584
15	0x3d968ecc	0.07351455
16	0xbdbaca2f	-0.09120595
17	0x3e8c62d1	0.2741914
18	0x3cd5d9a8	0.026104763
19	0x3d2532f4	0.040331796
20	0x3dbf31e2	0.09335686
21	0xbdf0156c	-0.11722836
22	0x3d732744	0.05936362
23	0xbe9bc18b	-0.304211
24	0x3b892160	0.004184887
25	0xbe372777	-0.17886148
26	0x3e345513	0.17610578
27	0xbe29ebb7	-0.16593824
28	0x3ce2558e	0.027628686
29	0x3df1968a	0.11796291
30	0x3e236029	0.15954651
31	0xbc7efde7	-0.015563465

rnn.bias_hh_l0 f4 [32]
0	0x3e7e4acb	0.24833219
1	0xbcbab918	-0.022793338
2	0x3e173263	0.14765315
3	0x3e88e932	0.26740414
4	0x3d8053ac	0.06265959
5	0x3e47cdf5	0.1951216
6	0xbe1183e4	-0.14210469
7	0xbd461284	-0.0483575
8	0xbe03ace4	-0.12858921
9	0xbdec28f4	-0.11531249
10	0xbdd87083	-0.10568335
11	0x3da0e041	0.07855273
12	0x3db2c32e	0.08728634
13	0xbcfd1faa	-0.030898888
14	0xbd288edc	-0.041151866
15	0x3b6f1491	0.0036480764
16	0xbda08bc1	-0.07839156
17	0x3eb60d3d	0.35556975
18	0xbe2f03bb	-0.17091267
19	0xbd069a1c	-0.032861814
20	0xbc878f20	-0.01654774
21	0x3d14e0c2	0.03634716
22	0xbdb6a83a	-0.089188054
23	0xbeae1209	-0.33998135
24	0x3d7ea460	0.06216848
25	0xbaee9ace	-0.0018204094
26	0x3e8b46b1	0.2720237
27	0xbd8d0dad	-0.06887374
28	0x3a82a0a2	0.0009966085
29	0xbe20c66d	-0.15700693
30	0xbe0e4e32	-0.13897017
31	0xbe880f02	-0.2657395

out.weight f4 [2, 32]
0	0xbd2a7acf	-0.041621026
1	0x3dcafab6	0.099111006
2	0xbd4fc24b	-0.0507224
3	0x3d6d2527	0.05789676
4	0x3e35aa26	0.17740688
5	0xbbd5e1a4	-0.0065271426
6	0xbda50ffb	-0.08059689
7	0xbd375768	-0.04476109
8	0x3e5341a2	0.20630506
9	0x3d1dbd4a	0.0385106
10	0x3e21b82c	0.15792912
11	0xbd21cabe	-0.03949999
12	0xbe483cb1	-0.19554402
13	0x3d9eda81	0.0775652
14	0x3dc04b4f	0.09389364
15	0x3e0202ce	0.12696382
16	0xbdb93ab3	-0.09044399
17	0x3e1aa729	0.15102829
18	0x3d88dad8	0.06682366
19	0x3d6367db	0.055518966
20	0xbe11f6ad	-0.14254256
21	0x3ce00028	0.027343825
22	0x3e6e6cc1	0.23283674
23	0x3ccb32ed	0.024804557
24	0x3c319f77	0.010841242
25	0x3d884e50	0.06655562
26	0xbdde27c9	-0.10847432
27	0xbe5cba13	-0.21555357
28	0xbd4d8cc5	-0.050183076
29	0x3dd9f673	0.106427096
30	0xbe610b2b	-0.21976916
31	0xbdf80593	-0.12110438
32	0xbe3e94c7	-0.18611442
33	0xbd04f3ec	-0.032459185
34	0x3e1671c4	0.14691836
35	0x3d27d598	0.040975183
36	0x3dc2a515	0.09504143
37	0xbd48643c	-0.048923716
38	0x3d1956be	0.03743624
39	0xbe236d1f	-0.15959595
40	0x3dde4ef9	0.108549066
41	0x3d017025	0.03160109
42	0xbc64c15a	-0.013962114
43	0xbd0c686e	-0.03427928
44	0x3d8925d3	0.066966675
45	0x3ccb0aa3	0.024785345
46	0xbd883bbb	-0.06652018
47	0x3dd16f59	0.10226316
48	0xbd0ee716	-0.03488835
49	0x3cf39398	0.029733464
50	0x3e3a38f0	0.18185782
51	0xbdabbf97	-0.08386152
52	0x3ddabe83	0.106808685
53	0xbd2601f5	-0.04052921
54	0x3bb56288	0.0055354275
55	0xbd023387	-0.03178742
56	0x3dc809c1	0.097674854
57	0xbe4a8cf4	-0.19780332
58	0x3d72b2f9	0.059252713
59	0xbe3228f7	-0.1739844
60	0x3d1bcb0e	0.038035445
61	0xbe0e847a	-0.13917723
62	0x3de47663	0.11155393
63	0xbdea8cf5	-0.11452667

out.bias f4 [2]
0	0xbd187b52	-0.037226982
1	0xbe1786c9	-0.1479751
