timeseries/pretrained/predictnet_e5000.pth (torch_old, 6126 bytes, 6 tensors)

rnn.weight_ih_l0 f4 [32, 4]
000000 74 a6 fd bd 9c e1 42 3d c4 e0 58 bd 78 5f a0 bd
       -0.12385264 0.04757844 -0.05294873 -0.07830709
000010 e4 16 f9 be 7d 9c be be 35 b9 bf be d2 14 92 be
       -0.48650277 -0.37228766 -0.3744599 -0.2853151
000020 7e c0 bc bd 65 c8 99 be ae 35 7f 3d 1b 2b 74 be
       -0.092164025 -0.300357 0.062307052 -0.23844568
000030 81 58 92 3e 7f 88 14 bd 96 82 a9 3d 25 40 71 3e
       0.28583148 -0.036262985 0.082768604 0.23559625
000040 09 2c ff be 27 0b c4 be aa 3a b1 be 8f a9 b8 be
       -0.49838284 -0.3828976 -0.3461507 -0.36066863
000050 21 d2 ee 3d 88 75 49 3e 64 32 56 bd d3 ae ac 3c
       0.11661173 0.19673741 -0.05229415 0.021079456
000060 28 ff b1 3d 8a 4b 58 3e 0a da 45 3e 5c 5b 2b bd
       0.08691245 0.21122566 0.19321457 -0.041835174
000070 50 64 da bd f3 21 1a be d6 8c a1 3d 60 d3 69 bd
       -0.10663664 -0.15052013 0.078881904 -0.05708635
000080 49 d1 2e 3e 4e 78 ef 3d e2 17 8e 3d c5 e0 25 3e
       0.17072023 0.11692868 0.06938149 0.16199024
000090 77 e0 12 3e 58 aa 31 3d fe 87 ad bd 11 89 2f 3e
       0.14343439 0.043375343 -0.08473204 0.1714213
0000a0 37 7c 9e 3d d4 db 1f 3e 3a 65 77 bd 13 2f a7 ba
       0.07738536 0.15611202 -0.06039927 -0.0012755118
0000b0 99 37 1b bf 45 b2 16 bf 65 af 1e bf 63 32 02 bf
       -0.6063171 -0.5886577 -0.6198638 -0.50858134
0000c0 26 04 d9 be e7 d7 09 bf fc 7e 14 bf 31 0f 16 bf
       -0.42385978 -0.53845066 -0.5800626 -0.5861693
0000d0 5c e5 83 3e 07 16 11 3e b3 83 1c 3d 0d 5c 96 3e
       0.25760925 0.14168559 0.038211536 0.29367104
0000e0 41 1f 0f 3e 29 23 ea 3d e0 12 5c 3e 67 f0 a1 3d
       0.13976766 0.114324875 0.21491575 0.07907181
0000f0 39 02 f5 3d 57 00 3d 3e 8a c8 18 be 3e d9 29 3e
       0.119633146 0.18457161 -0.1492025 0.16586778
000100 96 37 e2 be 5f a8 0e bf 5c ee e8 be 38 82 c2 be
       -0.44183034 -0.55725664 -0.45494354 -0.37989974
000110 75 fd e9 bd 74 e6 54 be 1b dc b1 3d 2b d8 1d 3c
       -0.11425296 -0.20791036 0.0868456 0.009634058
000120 7a 22 1f 3d 4d e7 89 3e 5c 6c 32 3d 6a 9b bd 3c
       0.03885124 0.2693428 0.04356037 0.023145396
000130 01 94 17 bf 85 9e 30 bf 0f fd 25 bf f6 2f e2 be
       -0.5921021 -0.6899188 -0.6483926 -0.44177216
000140 2c f9 02 3f 13 31 b0 3e fd 04 e1 3e 90 71 94 3e
       0.51161456 0.3441244 0.43949118 0.2899289
000150 2f f0 9c bd 41 1e 2a be 70 bf cc 3c b0 ba 3e 3c
       -0.07662999 -0.16613103 0.024993628 0.011641189
000160 5a fb bf 3d c4 13 30 3e 80 df 71 3e 83 ae b3 bc
       0.093741134 0.1719504 0.23620415 -0.0219338
000170 44 63 2f 3f 10 37 25 3f 85 9d df 3e af b5 cf 3e
       0.6851084 0.64537144 0.43674865 0.405683
000180 13 f8 ae 3e a1 3c 1b 3f de f8 ff 3e a7 5c 25 3f
       0.3417364 0.6063939 0.49994558 0.645945
000190 9f 4f 86 be dc d2 3f be e0 01 55 bd 79 97 4a be
       -0.2623262 -0.1873278 -0.05200374 -0.19784345
0001a0 04 0c be 3e ac 13 08 3f dc 20 29 3f 06 f5 14 3f
       0.37118542 0.53155017 0.66065764 0.58186376
0001b0 57 78 04 3f 15 5b 99 3e 89 72 b4 3e 71 8e c3 3e
       0.51746124 0.29952303 0.35243633 0.38194612
0001c0 c6 94 bd 3d c4 d8 4b bd 35 80 24 3e 3e 15 9f 3d
       0.09256892 -0.04976727 0.16064532 0.077677235
0001d0 04 27 ef 3e ee 7e dd 3e 66 82 28 3f 9c 95 24 3f
       0.46709454 0.43260902 0.6582397 0.64290786
0001e0 66 37 29 be 2c c7 1d be d1 49 63 bd 61 73 61 3d
       -0.16525039 -0.1540801 -0.05549032 0.055041675
0001f0 51 3d d5 3e d4 0e 10 3f 23 9b f8 3e 9c 04 0d 3f
       0.41648343 0.56272626 0.4855586 0.5508516

rnn.weight_hh_l0 f4 [32, 32]
000000 26 76 69 bd 96 dd 5b bd f2 70 b6 bd ca ff 9f bd
       -0.05699744 -0.053678118 -0.08908261 -0.0781246
000010 56 e1 96 3d 45 b1 33 3e 84 53 11 3d 6e 55 ec 3d
       0.07367198 0.17548092 0.035480037 0.11539732
000020 b6 34 c4 3d 2e 73 f0 bd 60 8a ec bc 78 13 b9 3c
       0.09580366 -0.11740719 -0.028874576 0.022592291
000030 c0 15 1d bb a8 ce e7 3c 80 5e 4f 3d 21 18 af bd
       -0.0023969263 0.028296784 0.05062723 -0.08549524
000040 fc 37 84 bd 31 82 96 bd 70 2b b2 bd b0 13 03 be
       -0.06455991 -0.07349051 -0.08699691 -0.12800479
000050 0c c7 31 3d d9 32 20 3e 48 a5 18 bd ec 68 09 3d
       0.043402717 0.15644397 -0.037267 0.033547327
000060 90 6a 6a bc 2a 03 e0 bd 6d 64 04 3e 68 38 ca 3c
       -0.014307633 -0.109381035 0.12928934 0.0246851
000070 83 49 15 3e d3 e6 0e 3e d0 48 0f 3c 55 76 e1 bd
       0.14578824 0.1395524 0.008745387 -0.11008898
000080 c3 44 14 3f 1b d1 7c be 98 90 88 3e 91 e0 f2 be
       0.5791742 -0.24689142 0.26672816 -0.47436956
000090 1c 31 0c bf db 78 b0 be 4c 79 81 be a2 43 7a 3e
       -0.54762435 -0.34467205 -0.25287855 0.24439862
0000a0 f8 3a d9 be 6f b7 10 bf 20 29 13 bf 0f 64 15 3f
       -0.42427802 -0.565299 -0.57484627 0.583558
0000b0 3c 2a aa 3e 0d 61 96 be 5b 74 0b bf b0 7d e6 be
       0.33235347 -0.2937092 -0.5447442 -0.45017767
0000c0 47 a0 a2 3e 66 29 f0 3e b4 4b ff be 6c bb 0f 3f
       0.31762907 0.46906585 -0.49862444 0.5614536
0000d0 49 9e 05 3f 66 24 01 3f d9 9c a1 be 02 11 cd be
       0.5219465 0.50446165 -0.31564978 -0.40052038
0000e0 a5 c0 d6 3e ee 3c fc 3e 86 02 15 3f 28 a8 11 3f
       0.4194385 0.49265236 0.58206975 0.5689721
0000f0 61 2a 06 bf c7 02 f1 3e 21 a0 b9 3e 8a 12 da be
       -0.52408415 0.4707243 0.3625498 -0.4259227
000100 b6 11 18 be 3c a3 23 3e 5f dc 3d bd 8b 67 24 3d
       -0.14850506 0.15980238 -0.04635274 0.04013781
000110 18 79 04 be eb ef 2a 3d 11 38 f6 bd 16 4a 03 be
       -0.12936819 0.04173271 -0.120224126 -0.1282123
000120 84 a2 a0 bd d1 ba bc 3d a3 e6 2d 3d aa fe 19 3e
       -0.078434974 0.0921532 0.04245628 0.15038553
000130 b3 29 ac 3d e4 93 a6 3c 56 3f 2d be b1 da 27 be
       0.08406391 0.020334192 -0.16918692 -0.16392018
000140 5d ee 00 be b4 1e d0 bd a7 16 2c be fb fa fa 3d
       -0.12590928 -0.10162106 -0.16805516 0.12254902
000150 16 c9 1d 3e ba c2 2f 3e e6 91 0d 3e e2 47 0a be
       0.1540874 0.17164126 0.13825187 -0.13503984
000160 4f 32 7c bd 62 7a 19 3e 90 a8 0f 3e bf 36 5e bc
       -0.061571416 0.14988092 0.14029145 -0.013562857
000170 e4 83 90 bc 57 c6 2b be b7 c7 d6 bd 4d 64 e4 3d
       -0.017641015 -0.1677488 -0.10487311 0.11151943
000180 45 68 65 3d 9a 79 3a 3e b5 b5 43 be e4 b8 07 3e
       0.056007642 0.1821045 -0.19112284 0.13254124
000190 47 da b3 3d 73 2f a0 bc 41 d8 4d 3e be 42 24 be
       0.087818675 -0.019553876 0.20102026 -0.16041085
0001a0 53 25 80 3b b7 2d 23 3c 1f b0 1d bc 4e d2 37 bc
       0.0039106994 0.00995963 -0.00962451 -0.011219574
0001b0 8c 67 11 bd e2 55 a5 3d e4 75 84 3e 98 3d a5 3d
       -0.03549914 0.080730215 0.25871193 0.08068389
0001c0 4b 9e 7e bd 3e f4 38 be 43 03 f1 3d dc 7a 85 be
       -0.06216268 -0.18061921 0.117682 -0.26070297
0001d0 09 66 8c be 19 6a cd bd 0b df 28 bd 3c 84 43 bd
       -0.27421597 -0.10030002 -0.041228335 -0.04773353
0001e0 28 ef a8 3d 75 92 24 be 4a cb f5 bd fe 63 70 3d
       0.082487404 -0.16071494 -0.12001665 0.05868911
0001f0 e3 a4 de 3d ef 35 e0 bd a0 f4 4c be 25 80 78 3e
       0.108712934 -0.10947787 -0.20015192 0.24267633
000200 d2 02 f3 3e 68 65 05 bf 77 22 eb 3e 21 17 f1 be
       0.4746309 -0.5210786 0.45924732 -0.47087958
000210 b6 56 13 bf 92 f0 8f be 17 21 eb be dd 9b fe 3e
       -0.57554185 -0.28113228 -0.45923683 0.4972829
000220 01 48 13 bf a2 e2 cf be 8b 96 93 be 4d 0d d4 3e
       -0.57531744 -0.40602595 -0.28825793 0.41416398
000230 64 df ea 3e 39 a6 15 bf c5 51 17 bf 33 37 ad be
       0.4587356 -0.5845676 -0.59109145 -0.33831176
000240 d9 c6 0c 3f b6 99 9a 3e ed ee 8f be 23 05 a6 3e
       0.5499092 0.30195397 -0.28111973 0.32425794
000250 07 38 c7 3e b0 89 fb 3e e7 3c 14 bf d7 a9 b3 be
       0.38909933 0.49128485 -0.5790543 -0.35090515
000260 0a 5e 1c 3f 2c 73 92 3e 40 85 d9 3e ac b3 cc 3e
       0.6108099 0.28603494 0.42484474 0.3998083
000270 a0 65 fc be 0f 7d 96 3e 7a aa 05 3f d7 e7 15 bf
       -0.49296284 0.29392287 0.5221325 -0.58556885
000280 83 90 f2 3d bb 1a c6 3c c6 44 14 3e e5 1b bc bd
       0.1184397 0.024182668 0.1447936 -0.09185008
000290 4d 9d af bc 12 da 19 3d 9d df 21 be 58 72 27 3e
       -0.021437312 0.037561484 -0.15807958 0.16352212
0002a0 41 36 2b be 85 60 2f bd 85 c2 06 3a a3 25 6d bd
       -0.16719915 -0.042816658 0.000514068 -0.05789722
0002b0 47 1c 77 bd 4f 78 a1 3c cd 57 f7 bd ff 21 ff bd
       -0.0603297 0.019710688 -0.120772935 -0.12457656
0002c0 3f c7 b8 bc f7 27 38 bd d5 21 45 bd bb b9 f1 bd
       -0.022555945 -0.04495999 -0.048127968 -0.118030034
0002d0 83 b1 02 be e7 02 dc bc 82 83 2e 3e 1a fd 9a bd
       -0.12763028 -0.026856853 0.17042354 -0.075678065
0002e0 5c 08 0a 3e b7 04 2b be da ea 2f 3e 57 30 10 be
       0.13479751 -0.16701017 0.17179433 -0.1408094
0002f0 65 6b 0f be 31 5f 66 3d e2 ae 0f be 76 e9 80 bd
       -0.14005812 0.056243125 -0.14031556 -0.06294529
000300 12 ae 03 bd 1c 2c 85 3e 20 a1 72 be 11 29 00 bd
       -0.03214843 0.26010215 -0.23694277 -0.031289164
000310 2f 54 81 3e 7a 2d 94 3c bf 8c 67 3e c5 fc 13 bd
       0.2525954 0.018088091 0.22612284 -0.03612973
000320 6a 14 89 3e 4f 11 c0 3c 32 5d 0e 3d 47 31 13 be
       0.26773387 0.023445753 0.034756847 -0.14374267
000330 43 fe 04 3d 1a a9 3d bd 6f e9 1b bd b2 60 f3 3d
       0.032469045 -0.046303846 -0.038064416 0.118836775
000340 fc 34 46 be ad 7e 84 be 3b fd 2d 3d 71 a1 5e 3d
       -0.1935615 -0.25877896 0.042477828 0.05435318
000350 07 5a 36 bd 2c 0f f1 bd 4f 88 ad 3d 80 a9 83 3e
       -0.04451945 -0.11770472 0.084732644 0.25715256
000360 21 48 85 bc de 50 82 be 1e 3f 2d bb 39 4c 7f bd
       -0.016269745 -0.25452322 -0.0026435326 -0.06232855
000370 a7 e6 2b 3d a5 11 61 be 07 49 28 bd 4c 8f 36 3e
       0.041968014 -0.21979387 -0.04108527 0.17828101
000380 d6 dd a5 3d 59 5d 17 3e 19 5d d8 bd 5a 2a d6 3d
       0.080989525 0.14781703 -0.10564632 0.10457297
000390 ec da cb bd d4 62 06 be 20 96 ec bd 40 90 ec 3c
       -0.099538654 -0.13123637 -0.115520716 0.028877378
0003a0 d0 1f 8f bc a5 1c 2b be 84 03 29 3d 1a d6 08 be
       -0.017471224 -0.16710146 0.04126312 -0.13362923
0003b0 2a 69 f5 bd 52 bd b3 3d df 8f 08 3e b6 a6 59 bd
       -0.11982949 0.08776344 0.13336132 -0.053137504
0003c0 6e 78 f7 3d 67 1a 01 be 92 a4 f7 3d 52 2f e4 3d
       0.12083517 -0.12607728 0.12091936 0.11141838
0003d0 c8 fd 5f bd 94 5a 86 3d b0 9d 2c be fd cd 22 3e
       -0.054685384 0.06560245 -0.16857028 0.15898891
0003e0 f0 66 01 3d b6 ba cc 3d 9a 54 10 be 59 65 af bd
       0.03159231 0.0999655 -0.14094773 -0.085642524
0003f0 6e 3f 15 be 34 ae 1d bd ba 3a 16 be 42 16 cd bd
       -0.14574978 -0.03849621 -0.1467084 -0.10014011

rnn.bias_ih_l0 f4 [32]
000000 09 78 cb bd 47 3c a2 be 4f 02 98 bd 2b 1e 2f 3e
       -0.09935004 -0.31686613 -0.07422315 0.17101352
000010 7f 15 0f bf ac 47 2c 3e 01 92 84 3e 40 04 59 3c
       -0.55892175 0.16824216 0.25892642 0.013245642
000020 32 2a a2 bd c2 96 d8 3d 28 85 0e 3e a0 99 08 bf
       -0.07918204 0.1057563 0.13917983 -0.53359413
000030 fa f5 c4 be 4a ce 93 3d 7a ed 01 3e f7 3d 24 be
       -0.38468915 0.07217081 0.12688246 -0.16039263
000040 b9 cf ac be d8 fb be bd be 85 9f 3d c7 63 15 bf
       -0.3375223 -0.09325379 0.07789181 -0.58355373
000050 91 1e 95 3e 2b 73 0e 3e b8 d8 32 3e 11 95 a2 3d
       0.29124883 0.1391112 0.17465484 0.079385884
000060 42 f8 c7 3e a9 81 b9 be e5 39 d1 3e 18 79 81 3e
       0.39056593 -0.36231735 0.40864483 0.252877
000070 c0 49 5b 3c 4d 0a d1 3e 24 da c9 3d 63 ad 02 3f
       0.013384283 0.4082817 0.0985606 0.5104582

rnn.bias_hh_l0 f4 [32]
000000 96 f4 a9 3d ce 0c 8b be 0c 18 2e 3e 18 70 12 3e
       0.08298604 -0.27158207 0.1700136 0.14300573
000010 70 2a c7 be b2 ac 0f 3e 07 06 d5 3d 28 14 2d bd
       -0.38899565 0.14030722 0.1040154 -0.04225555
000020 58 7a 2a bd d0 c4 b6 3c 77 70 34 be 27 04 09 bf
       -0.041620582 0.022310644 -0.17621027 -0.5352196
000030 8f eb bb be 4a 43 4d 3d 33 5c 3f 3e 43 19 b8 bb
       -0.36703154 0.050113 0.18687515 -0.005618246
000040 2b 52 a9 be 1d f2 24 3c 7e 0b 20 3e a4 15 2f bf
       -0.33070502 0.01006749 0.15629384 -0.68392396
000050 3d e2 a6 3e b9 22 18 3e b4 98 e5 3d 24 78 d3 bd
       0.3259448 0.14856996 0.112107664 -0.103256494
000060 c2 18 bb 3e 8e d8 19 be b3 b6 d5 3e 5f cd d4 3e
       0.36542326 -0.15024015 0.4174095 0.41562936
000070 be d6 ac bd 36 b8 12 3f 28 17 09 3d b0 65 ca 3e
       -0.08439396 0.57312334 0.03346935 0.39530706

out.weight f4 [2, 32]
000000 7c d8 78 bb be 69 1b 3e 66 89 3e be 1f c7 3c 3e
       -0.0037970832 0.15177056 -0.18607101 0.18435334
000010 4c 7e ac bd 25 da 19 be 5b b6 43 bd c5 a2 a2 bd
       -0.08422527 -0.15024622 -0.04778133 -0.07941202
000020 40 71 50 bd c5 fb 04 3e e9 5b f7 3d 47 2e af 3b
       -0.050889254 0.12986667 0.12078077 0.005346093
000030 42 67 4b bc f8 c7 56 3d 29 c4 f1 bb 99 1e 22 be
       -0.012414755 0.0524368 -0.0073781204 -0.15831985
000040 91 1d 65 bd de 2d 1d be e7 da b0 3d 8c da 4f 3d
       -0.0559364 -0.15349528 0.08635502 0.050745532
000050 70 39 2f bd ac 89 89 3d 0a 65 9d bc 18 74 bb 3c
       -0.042779386 0.06715712 -0.019213218 0.022882506
000060 7b 20 c4 3d c0 50 ab 3d c2 17 a4 3c 7f 2c 45 3e
       0.09576508 0.08365011 0.02003086 0.19255255
000070 32 f1 77 3d 7e a4 66 bc a0 11 3b be 7e 42 cd 3d
       0.060532756 -0.014077304 -0.18268442 0.10022448
000080 0e e1 1e 3e f5 0a 00 bd a6 75 87 bd 05 0f fa 3d
       0.15515539 -0.03126045 -0.066142365 0.12209896
000090 b8 04 32 3c e6 76 13 3e bf dd 8c 3d 53 e1 12 be
       0.010865383 0.14400825 0.06878232 -0.14343767
0000a0 b8 35 07 be 54 f7 39 3e 08 99 91 3d aa 55 c7 bd
       -0.13204086 0.18160754 0.071092665 -0.09733136
0000b0 01 b1 8e bd c2 3c bd 3d 9f c3 ac 3d 00 f2 13 3e
       -0.069673546 0.09240104 0.08435749 0.14447784
0000c0 84 d4 84 3d 52 14 94 bd 4d 10 d3 3d 64 91 76 3d
       0.06485847 -0.07230438 0.103058435 0.06019725
0000d0 5a 4b 36 bd ac e9 60 bd cd c3 d7 bd cd 0f 0a be
       -0.044505455 -0.054910347 -0.10535393 -0.1348259
0000e0 8a 5e cf bb 1f a1 f3 bd f6 27 2a 3d 79 17 4b 3c
       -0.0063284086 -0.11895966 0.041542016 0.012395733
0000f0 3d cc 87 bd 7f c9 2d bc 71 2b f4 bc db 62 7d 3d
       -0.06630752 -0.010607122 -0.02980587 0.061861854

out.bias f4 [2]
000000 3e 6a ed 3c 40 dc f7 bc
       0.028981324 -0.03025639
