timeseries/pretrained/predictnet_e2000.pth (torch_old, 7791 bytes, 6 tensors)

rnn.weight_ih_l0 f4 [32, 17]
-0.011630387 0.15618233 0.1831767 0.022466997 0.063500755 -0.030852376 -0.07835378 -0.10910091
0.047624294 0.113192156 -0.126544 0.17180051 0.15300924 -0.04633289 0.18877558 0.15928622
-0.09436873 -0.060785864 -0.06278798 0.12011951 0.006250005 0.07931611 0.23234712 0.0018243995
-0.062185746 0.23426148 0.20589015 0.3148902 0.3524372 0.0462293 0.05294186 -0.0129296845
-0.07770164 0.109284125 -0.13500829 -0.038127217 -0.14446364 0.09650745 -0.20904537 -0.14651705
-0.007436813 0.08902434 -0.036082167 -0.1756014 -0.046342075 -0.0847288 -0.06647645 -0.06659423
-0.03671176 0.112124674 -0.032964457 0.10692911 0.14505813 0.03304419 0.27750072 0.17019428
0.02520751 0.11224963 0.1964917 0.28200462 0.08449228 0.055156674 -0.06582908 0.2935816
0.05280984 0.23499227 0.21282643 0.14512806 0.024445673 0.12569346 -0.050010726 -0.07821341
0.032627854 0.021311553 0.060208578 0.2671362 0.027303781 -0.07875631 0.1511242 0.04435748
-0.119701885 0.06417828 0.07745351 0.14269349 0.308403 0.103548035 0.09661857 -0.021301717
0.08062492 0.04512866 0.09294139 -0.0036087453 0.03005378 -0.1685934 -0.028773168 -0.15643993
0.18099992 0.032526758 0.32397786 -0.07207714 -0.10363931 0.117916256 0.052599844 -0.11148797
0.030474931 -0.14912319 -0.026436422 -0.05879149 -0.059897754 -0.11328278 0.030414572 0.048934586
0.21832095 0.23864597 0.033455804 0.1885581 -0.15665396 0.09378333 0.028903842 0.040087122
0.17846692 -0.028789042 -0.056522682 -0.12702021 -0.23731428 -0.10796601 -0.22992654 -0.068393044
0.05634827 0.19656841 0.2289007 0.18537152 -0.1510229 -0.021936422 0.01500967 0.019988006
0.055867907 -0.03837798 -0.12034578 -0.15719374 0.14340237 -0.1849941 -0.008353622 -0.040810242
-0.13933183 -0.21119311 -0.05296615 -0.0279206 0.2452833 0.14229868 0.0040512355 0.009321004
-0.008077888 -0.17403312 -0.13589606 -0.122901484 0.09594 0.10516482 -0.10876531 -0.1239922
-0.16211906 -0.06898285 0.06376653 -0.04336697 -0.106407605 -0.030406525 0.052345175 -0.05768382
0.018728096 -0.064462 -0.16504806 -0.14715712 -0.06279349 -0.18249986 0.13239157 -0.063892126
0.03063903 0.05185874 -0.025545822 -0.022398276 -0.21318631 -0.06675309 -0.032864153 0.1170515
-0.10309636 -0.037447188 -0.064706884 -0.19227967 0.12130854 -0.1793428 -0.15857235 -0.07478788
-0.09642545 -0.03332981 0.020124132 -0.18659367 -0.14427263 -0.12288773 -0.13207446 -0.1504141
-0.19548543 -0.30646625 -0.056982506 -0.1432394 0.051142648 -0.15048607 0.026587775 -0.166369
-0.11062393 -0.04334824 -0.28874055 -0.18458995 -0.2274891 -0.04359628 0.026181838 -0.084643744
-0.1822047 -0.20369247 -0.23933333 -0.327521 -0.2787204 0.0057867295 -0.038471237 0.09216925
0.1130091 -0.01564672 -0.022727333 0.16865635 0.22912939 -0.07780865 -0.05893285 0.12469944
0.18885203 -0.0460389 0.022717685 0.17058073 0.061885055 0.074172705 0.14067003 -0.14130175
-0.1805306 -0.12825695 -0.04297074 -0.19719331 -0.21218638 -0.20394574 -0.17610466 -0.10799794
-0.16453612 -0.12240966 -0.19463447 -0.008671854 0.031184316 -0.16624731 -0.024510857 0.18112648
00000000: 618d 3ebc 43ee 1f3e ac92 3b3e b50c b83c
00000010: af0c 823d 1fbe fcbc f277 a0bd 4c70 dfbd
00000020: b111 433d 4ad1 e73d c094 01be 79ec 2f3e
00000030: 74ae 1c3e 8ec7 3dbd 634e 413e ed1b 233e
00000040: 6544 c1bd 99fa 78bd fc96 80bd 3801 f63d
00000050: d8cc cc3b 7c70 a23d 67ec 6d3e b020 ef3a
00000060: 7bb6 7ebd 3ee2 6f3e ded4 523e 4a39 a13e
00000070: a672 b43e ef5a 3d3d 90d9 583d 07d7 53bc
00000080: 0a22 9fbd 5bd0 df3d 9d3f 0abe 492b 1cbd
00000090: 47ee 13be b3a5 c53d fd0f 56be 9108 16be
000000a0: 82b0 f3bb 6552 b63d e5ca 13bd dad0 33be
000000b0: 30d1 3dbd 4b86 adbd ce24 88bd 8e62 88bd
000000c0: 125f 16bd 9fa1 e53d bd05 07bd a6fd da3d
000000d0: 1e8a 143e 5859 073d 9314 8e3e 6947 2e3e
000000e0: fb7f ce3c 22e3 e53d 1f35 493e e962 903e
000000f0: 4a0a ad3d f7eb 613d 66d1 86bd 5450 963e
00000100: 214f 583d d0a1 703e 2cef 593e 739c 143e
00000110: 4b42 c83c c9b5 003e 0cd8 4cbd 5a2e a0bd
00000120: c9a4 053d 9195 ae3c 459d 763d 13c6 883e
00000130: 2eac df3c fd4a a1bd 4dc0 1a3e 30b0 353d
00000140: 4326 f5bd e76f 833d f29f 9e3d 3e1e 123e
00000150: ffe6 9d3e fe10 d43d f5df c53d f080 aebc
00000160: ae1e a53d d4d8 383d 0e58 be3d b380 6cbb
00000170: 5833 f63c c0a3 2cbe b5b5 ebbc ca31 20be
00000180: 0b58 393e c73a 053d 6de0 a53e 2e9d 93bd
00000190: d940 d4bd 147e f13d ef72 573d ce53 e4bd
000001a0: 90a6 f93c c0b3 18be 3291 d8bc 58cf 70bd
000001b0: 5957 75bd cd00 e8bd fb27 f93c a26f 483d
000001c0: 878f 5f3e 9c5f 743e f408 093d 6015 413e
000001d0: e569 20be 7911 c03d c0c7 ec3c 6532 243d
000001e0: 08c0 363e ffd6 ebbc 5484 67bd 9611 02be
000001f0: 8402 73be 491d ddbd dd71 6bbe a711 8cbd
00000200: 72cd 663d 3b49 493e f264 6a3e 08d2 3d3e
00000210: bfa5 1abe 03b4 b3bc 1eeb 753c e3bd a33c
00000220: bfd5 643d 3b32 1dbd d977 f6bd 65f7 20be
00000230: 12d8 123e 186f 3dbe a1dd 08bc a428 27bd
00000240: 01ad 0ebe 0243 58be 09f3 58bd beb9 e4bc
00000250: 8c2b 7b3e bfb6 113e 3ac0 843b 20b7 183c
00000260: 1e59 04bc bd35 32be 5628 0bbe c6b3 fbbd
00000270: 317c c43d a760 d73d 59c0 debd 9fef fdbd
00000280: 8a02 26be e146 8dbd 0798 823d 90a1 31bd
00000290: 3bec d9bd 1b17 f9bc e567 563d df45 6cbd
000002a0: aa6b 993c a704 84bd 5c02 29be 5bb0 16be
000002b0: e099 80bd 3ee1 3abe a891 073e e0d9 82bd
000002c0: b4fe fa3c d569 543d 7945 d1bc 977c b7bc
000002d0: 834d 5abe d8b5 88bd 909c 06bd b2b8 ef3d
000002e0: 2f24 d3bd 3962 19bd 0b85 84bd f6e4 44be
000002f0: 9d70 f83d a4a5 37be ca60 22be 632a 99bd
00000300: b57a c5bd d784 08bd 5ddb a43c 6912 3fbe
00000310: 34bc 13be 90ac fbbd 873e 07be 2706 1abe
00000320: 552d 48be 25e9 9cbe 7d66 69bd 59ad 12be
00000330: f47a 513d 0519 1abe 9bce d93c a35c 2abe
00000340: cd8e e2bd ed8d 31bd cdd5 93be 2605 3dbe
00000350: e7f2 68be 0392 32bd 4b7b d63c b359 adbd
00000360: de93 3abe c294 50be cc13 75be d5b0 a7be
00000370: 71b4 8ebe 9b9e bd3b 0494 1dbd 3bc3 bc3d
00000380: 5171 e73d 8d2d 80bc ac2e babc 40b4 2c3e
00000390: e5a0 6a3e 245a 9fbd 9263 71bd 6c62 ff3d
000003a0: 6d62 413e 4993 3cbd 701a ba3c b7ac 2e3e
000003b0: 2f7b 7d3d dce7 973d ce0b 103e 68b1 10be
000003c0: 03dd 38be ca55 03be 1602 30bd 0bed 49be
000003d0: 6347 59be 27d7 50be c854 34be 062e ddbd
000003e0: 287c 28be eab1 fabd 424e 47be 6414 0ebc
000003f0: 4076 ff3c bc3c 2abe feca c8bc 3879 393e

rnn.weight_hh_l0 f4 [32, 32]
-0.34872955 0.0022785242 -0.00041350204 -0.14989847 -0.085353 -0.06523291 -0.018144775 0.09162979
0.2693139 0.0477596 0.094868466 0.13560063 0.16339391 0.03902468 0.08033749 -0.10244881
0.09670914 0.10208623 0.02088217 0.099869564 0.0043992507 0.03297797 -0.12972836 0.065495096
-0.061469615 -0.040744632 -0.09751216 0.18247215 0.006824486 -0.0633795 -0.05819059 -0.0730981
0.057120442 -0.17803733 -0.33657855 -0.047052987 0.030779213 -0.31881398 -0.010430014 -0.24338104
0.17320375 0.006437361 0.052224256 -0.17458521 -0.19831245 0.17011456 -0.011765155 -0.013639086
0.22926337 0.07987423 0.009011892 -0.038954392 -0.08505486 0.10958979 0.19364055 0.026888052
-0.062958375 0.13146424 0.03155385 -0.07859044 -0.022282913 0.14333238 0.016963456 0.024383608
0.097431965 -0.057310488 -0.14636795 -0.0826227 -0.013255613 -0.054699183 0.071359314 0.18355164
-0.0641883 -0.070096165 -0.061889827 -0.01216218 0.072800115 0.05475894 -0.10342071 0.11400769
0.0035057997 0.011468938 -0.13951413 -0.007071563 0.12426116 -0.02091632 -0.12703258 0.1974799
0.12663038 0.15631059 0.0036905415 0.111258775 -0.02878933 -0.062365357 -0.16418262 -0.13935025
0.102840684 -0.061245777 0.09521305 0.032596488 0.17204179 -0.055836517 -0.14620169 -0.18790281
-0.10098741 0.10053865 -0.07911146 -0.07326756 -0.112542614 -0.056417935 -0.15589225 0.11229603
-0.021161538 -0.052771464 -0.07587497 0.035905607 0.091243416 0.10384589 0.084505916 0.040031645
0.24082099 0.057747204 -0.20430034 0.20293325 -0.014589194 -0.107727274 -0.0337479 -0.22673462
-0.20356174 -0.040106542 0.09153664 -0.17082104 -0.076174736 -0.1392912 -0.20956287 -0.17993675
-0.17572033 -0.00767004 0.10385305 -0.13398401 -0.04093226 -0.07335106 -0.028370801 -0.028615411
0.028853998 -0.10683078 -0.03681261 0.1065614 0.17896159 0.008317846 -0.053623024 -0.1215618
-0.034082625 -0.0033971332 -0.10557225 0.034498274 -0.012488691 -0.13763632 0.16397251 -0.00963012
0.09706636 0.23531647 -0.1519511 0.20226452 0.19002387 -0.03421422 0.0014611565 -0.006950047
-0.099956065 -0.11658519 -0.24467254 -0.017904336 0.08881421 0.17286879 -0.1999183 0.021154124
0.14487031 0.069595434 -0.14873895 -0.08862773 -0.23899017 -0.10478465 -0.016860984 0.1331608
0.04909129 -0.096548975 0.06601401 -0.057274252 -0.022815771 0.14741714 0.053410385 0.14559014
-0.09321915 -0.14547102 -0.015228835 -0.08585399 0.18801571 -0.20952544 -0.2508063 0.017759318
-0.097954564 -0.17359805 0.17565626 0.012778499 -0.059172284 0.19590011 -0.016592238 -0.046639256
-0.11354595 0.037266158 -0.038547866 0.0049781897 -0.0526874 0.18590379 0.06413953 0.15299296
0.0937544 -0.024794754 0.0007728835 -0.18510865 0.035612796 -0.14608736 0.12406066 -0.1768912
-0.060117617 0.12418435 -0.096666545 0.014642274 -0.12214467 0.07891501 0.05405802 -0.24504839
-0.26193896 -0.06792632 0.17636399 0.003743221 0.012039351 -0.059370004 -0.17138095 0.0076154126
-0.08903939 -0.08329687 -0.118409954 0.0044753915 0.19638307 0.029780054 0.006291261 0.14572988
-0.115127005 -0.12270996 -0.01980127 -0.021975432 0.14012438 0.0753295 -0.12154485 -0.09639597
00000000: ae8c b2be 4b53 153b 4ecb d8b9 fc7e 19be
00000010: 8ecd aebd d598 85bd 5aa4 94bc 66a8 bb3d
00000020: 83e3 893e 929f 433d 664a c23d e4da 0a3e
00000030: bc50 273e 58d8 1f3d fb87 a43d afd0 d1bd
00000040: 710f c63d 9612 d13d 1611 ab3c 6a88 cc3d
00000050: 9727 903b e813 073d 83d7 04be 4b22 863d
00000060: 90c7 7bbd d8e3 26bd 75b4 c7bd fbd9 3a3e
00000070: f09f df3b 1ccd 81bd 4259 6ebd 75b4 95bd
00000080: 20f7 693d 6b4f 36be 0654 acbe a2ba 40bd
00000090: b024 fc3c 963b a3be a6e2 2abc e138 79be
000000a0: 535c 313e 7ff0 d23b 1ae9 553d 77c6 32be
000000b0: 6b12 4bbe 8332 2e3e a3c2 40bc 7976 5fbc
000000c0: 04c4 6a3e 1a95 a33d 9da6 133c a48e 1fbd
000000d0: 3e31 aebd 9d70 e03d b549 463e 5544 dc3c
000000e0: 52f0 80bd 909e 063e 9c3e 013d 06f4 a0bd
000000f0: a88a b6bc b9c5 123e f2f6 8a3c 22c0 c73c
00000100: 698a c73d 67be 6abd 7be1 15be 1736 a9bd
00000110: 122e 59bc 400c 60bd d524 923d f6f4 3b3e
00000120: 2875 83bd 948e 8fbd 3080 7dbd e143 47bc
00000130: 3a18 953d e94a 603d 3dce d3bd dd7c e93d
00000140: 8fc1 653b 36e8 3b3c cbdc 0ebe 92b8 e7bb
00000150: a37c fe3d b458 abbc d414 02be 2c38 4a3e
00000160: 65ab 013e e20f 203e 03dd 713b a4db e33d
00000170: 9ad7 ebbc d172 7fbd 7d1f 28be d5b1 0ebe
00000180: 239e d23d dadc 7abd 0fff c23d e583 053d
00000190: b92b 303e d5b4 64bd e5b5 15be 9869 40be
000001a0: 7dd2 cebd 35e7 cd3d 3005 a2bd 4d0d 96bd
000001b0: be7c e6bd 7e16 67bd 38a2 1fbe 76fb e53d
000001c0: f65a adbc e426 58bd 5664 9bbd c211 133d
000001d0: d4dd ba3d 27ad d43d 7011 ad3d 39f8 233d
000001e0: c799 763e 5588 6c3d 1c34 51be bccd 4f3e
000001f0: 8407 6fbc 1ea0 dcbd 3d3b 0abd 1f2d 68be
00000200: 7d72 50be c246 24bd 9077 bb3d b6eb 2ebe
00000210: 8001 9cbd 5aa2 0ebe a697 56be 5741 38be
00000220: 08f0 33be f554 fbbb e8b0 d43d 1b33 09be
00000230: 96a8 27bd 1539 96bd e269 e8bc de6a eabc
00000240: 385f ec3c 19ca dabd d2c8 16bd dd3c da3d
00000250: b541 373e 9347 083c d1a3 5bbd 65f5 f8bd
00000260: 399a 0bbd 70a2 5ebb 4436 d8bd 104e 0d3d
00000270: 5e9d 4cbc 89f0 0cbe 69e8 273e a7c7 1dbc
00000280: baca c63d cdf6 703e 1299 1bbe 6e1e 4f3e
00000290: 9e95 423e 3624 0cbd 4784 bf3a 38bd e3bb
000002a0: c4b5 ccbd 37c4 eebd 708b 7abe 1dac 92bc
000002b0: 39e4 b53d 8404 313e 62b7 4cbe 6a4b ad3c
000002c0: e258 143e 0d88 8e3d 064f 18be 7582 b5bd
000002d0: d7b9 74be 5699 d6bd 0c20 8abc 4e5b 083e
000002e0: f313 493d 78bb c5bd 5a32 873d 6898 6abd
000002f0: 24e8 babc 85f4 163e d9c4 5a3d 9515 153e
00000300: afe9 bebd 5bf6 14be 5d82 79bc 37d4 afbd
00000310: 3187 403e d68d 56be af69 80be fd7b 913c
00000320: 679c c8bd b0c3 31be 3cdf 333e e95c 513c
00000330: a35e 72bd 0a9a 483e 72ec 87bc ce08 3fbd
00000340: c78a e8bd 66a4 183d 5ee4 1dbd 1520 a33b
00000350: bece 57bd 905d 3e3e 965b 833d 30aa 1c3e
00000360: 4f02 c03d 5e1e cbbc 559b 4a3a 1f8d 3dbe
00000370: b9de 113d ed97 15be 8413 fe3d f722 35be
00000380: e43d 76bd 5d54 fe3d 1cf9 c5bd 26e6 6f3c
00000390: fc26 fabd 319e a13d f16b 5d3d f7ed 7abe
000003a0: dd1c 86be f41c 8bbd c398 343e d450 753b
000003b0: b340 453c f62d 73bd 7d7e 2fbe b68a f93b
000003c0: 495a b6bd 8d97 aabd eb80 f2bd 4ea6 923b
000003d0: a518 493e 4df5 f33c ec26 ce3b 373a 153e
000003e0: b5c7 ebbd 5c4f fbbd 4636 a2bc d205 b4bc
000003f0: c47c 0f3e 5a46 9a3d 82ec f8bd 406b c5bd

rnn.bias_ih_l0 f4 [32]
0.12231976 -0.08610915 0.0214572 0.29511532 0.07986809 -0.1249757 -0.10079133 0.028838286
-0.21831061 -0.007988299 0.071507536 -0.2351134 0.006923347 0.09710004 0.062952586 -0.1342834
0.1599275 0.17217547 0.11900349 0.108679235 -0.06681892 0.123737745 0.038149085 0.12984532
0.043203324 0.07912428 -0.28688118 -0.1919786 0.06775512 -0.047711924 0.1009378 -0.18524139
00000000: c882 fa3d fe59 b0bd 03c7 af3c 5b19 973e
00000010: e291 a33d 43f3 ffbd af6b cebd 453e ec3c
00000020: d18c 5fbe 5be1 02bc 8b72 923d 91c1 70be
00000030: 3edd e23b 63dc c63d 49ed 803d 9681 09be
00000040: 09c4 233e c44e 303e 1ab8 f33d 3893 de3d
00000050: 5cd8 88bd 376a fd3d 3742 1c3d 2cf6 043e
00000060: f8f5 303d e90b a23d 17e2 92be 0a96 44be
00000070: 32c3 8a3d 946d 43bd 7ab8 ce3d ebaf 3dbe

rnn.bias_hh_l0 f4 [32]
0.034732528 -0.028606629 -0.2163339 0.3033246 0.24714686 -0.12020552 -0.15916532 -0.058435414
0.11640024 0.066254504 0.079090066 -0.100217655 -0.24983275 -0.11301139 -0.094874285 0.12213688
0.013901462 0.17418465 0.101831146 0.3134569 0.073215336 -0.20417358 -0.12367425 0.2078356
0.29645783 -0.059556745 -0.2083007 0.08021345 -0.13809429 -0.047498256 -0.102706954 -0.0734153
00000000: b243 0e3d 7358 eabc a286 5dbe 5d4d 9b3e
00000010: 1114 7d3e 502e f6bd 3cfc 22be f959 6fbd
00000020: 4063 ee3d 71b0 873d f9f9 a13d ea3e cdbd
00000030: 28d4 7fbe 8472 e7bd 734d c2bd e722 fa3d
00000040: f5c2 633c 765d 323e d98c d03d 6c7d a03e
00000050: ecf1 953d e112 51be ed48 fdbd dbd2 543e
00000060: 52c9 973e c6f1 73bd c74c 55be f346 a43d
00000070: 9768 0dbe 888d 42bd 0658 d2bd c35a 96bd

out.weight f4 [2, 32]
0.0037591702 0.0136363255 -0.015830016 0.17090337 0.017864421 0.03140056 0.013207843 0.013192785
0.014507379 -0.009351318 0.001421506 -0.06943773 -0.07401319 0.016758915 -0.022946086 -0.010782106
-0.028555825 -0.0038469036 -0.004025141 0.15872791 0.006670097 -0.0065143267 -0.0027805404 0.15875226
0.21079543 0.013005422 -0.09276049 -0.028520245 0.006427157 0.0009372468 -0.022502627 0.037751533
0.036467485 -0.000803433 -0.017603014 0.09389579 0.07238475 0.04191865 0.0064878464 0.023383664
0.037686083 -0.01161044 -0.006906255 -0.13244551 -0.073539905 0.028745504 -0.02638996 -0.022485279
0.027345506 0.016036578 -0.011925226 0.080817305 0.005172555 -0.019433932 0.0050657047 0.1855681
0.09064677 0.024625417 -0.16352889 -0.05624836 0.012691056 0.0050664567 -0.018320492 0.029499695
00000000: 695c 763b e56a 5f3c f3ad 81bc 4b01 2f3e
00000010: 6858 923c e09d 003d b565 583c 8d26 583c
00000020: 5cb0 6d3c 4536 19bc d451 ba3a 5e35 8ebd
00000030: 3a94 97bd fe49 893c 6ef9 bbbc 6ea7 30bc
00000040: e8ed e9bc 551c 7cbb 54e5 83bb 9289 223e
00000050: d490 da3b 2276 d5bb ba39 36bb f48f 223e
00000060: c2da 573e b214 553c 36f9 bdbd 4aa3 e9bc
00000070: e79a d23b 91b1 753a 6e57 b8bc 5aa1 1a3d
00000080: ee5e 153d 7a9d 52ba 3234 90bc 704c c03d
00000090: 753e 943d e4b2 2b3d 0098 d43b 198f bf3c
000000a0: b95c 1a3d b739 3ebc de4d e2bb cc9f 07be
000000b0: 179c 96bd b17b eb3c c22f d8bc 0c33 b8bc
000000c0: af03 e03c 245f 833c 0662 43bc 8b83 a53d
000000d0: 897e a93b e933 9fbc 36fe a53b 9005 3e3e
000000e0: 04a5 b93d 3ebb c93c 1e74 27be ae64 66bd
000000f0: 26ee 4f3c 8504 a63b db14 96bc 58a9 f13c

out.bias f4 [2]
0.19888972 0.30497155
00000000: bfa9 4b3e 3b25 9c3e
