timeseries/pretrained/predictnet_e300.pth (torch_old, 5610 bytes, 5 tensors)

rnn.weight_ih_l0 f4 [32, 1]
00000000: 1c4f 47be ba08 ddbe d54e 0f3f 48cb c8bd
00000010: 61e6 12bd 04fc dd3f a4fe 93bf bda7 793f
00000020: c174 713e f4b7 633e 0567 033f f975 f6be
00000030: 6491 0bbf 8094 fbbe 2045 fd3d 1413 bebe
00000040: 3ed2 b53e 96c3 f0bd c8e1 833f fe2d c1be
00000050: 4ebf c43e 988e 28bf e54b 9abf 2ad9 4f3f
00000060: e163 be3e 7fab ad3e 1a12 0e3e d090 dfbe
00000070: abc5 3dbf 82a3 16be 9b92 aebe 0bcf a13e
-0.19463772 -0.4317072 0.55979663 -0.09804398 -0.035864238 1.7342534 -1.1562085 0.97521573
0.23579694 0.22238141 0.5132907 -0.4813688 -0.54518723 -0.49136734 0.123667 -0.3712393
0.35511965 -0.11756055 1.0303278 -0.37730402 0.38427204 -0.6584258 -1.2054411 0.8119074
0.37185577 0.33919904 0.13874093 -0.4366517 -0.7412974 -0.14710811 -0.34096226 0.31603274

rnn.weight_hh_l0 f4 [32, 32]
00000000: d98c a0be b6b9 0bbe ca2e da3d d4e1 223e
00000010: 53f3 ee3d 9532 803f 91cb 023d 9646 0f3e
00000020: 3baf 3b3e 2ce1 643e 6ae8 b2be 432b 373e
00000030: e053 7b3e 975d 81be bec2 debc eb69 f33e
00000040: 77b4 85be 0c77 4c3e fdde ca3e 8120 c3bd
00000050: 6493 19bd edef 00be 0989 f6be 72c4 053e
00000060: e7b2 1c3f a5ce 823d 7eab 1d3e 0c42 0d3e
00000070: b44a 74be 5c05 c0bc adfb 223e e5aa 993e
00000080: 79e5 893d 096f 5dbe b776 87be 9e51 813b
00000090: fe60 243e 5fb9 c5be d640 0c3e e184 2abe
000000a0: d3f1 83be 8b0d 98be 5e39 35be 192d 903d
000000b0: cb71 983e 82cc f6bd 972f 273d 733e c23c
000000c0: 2497 03be 5142 593e 891d 0c3e 3373 953e
000000d0: 113e 8ebd 184f 8f3e fb09 363e c669 a9be
000000e0: ad84 0bbe b639 5cbe 499b edbc faa0 30bd
000000f0: 4371 4c3e 2254 2b3d 6f14 bebd a7a1 b2bc
00000100: 454b cfbe b053 333d 8fee 89be 897d c63b
00000110: 0ebe 23be 6805 c53e 6bd0 9c3d 57c6 2d3e
00000120: 5b45 40bd a8c5 4f3d 4da5 4bbe a377 003f
00000130: 8c5b 70be 14ae 8cbc 130e 813e 3934 59be
00000140: decd 81be 1ae7 9cbe e685 663a 7799 36bd
00000150: a118 da3e b42a 48be 6faf 87be 5058 b23d
00000160: cc04 abbd 427a 093d 4eec 173d 79f2 4abe
00000170: 477c 96be de64 a9be b9b7 92bd 03f4 ab3e
00000180: 5d31 863e 66df c53e bb0d 97bd 2752 8f3e
00000190: e48a 9a3e 8804 7cbd f8f0 d33e 425c 36be
000001a0: abc3 89bd b793 a6be 45b5 af3c 4140 7c3e
000001b0: 8f6c f73e f735 723d d6d9 973e f9d3 883c
000001c0: 25fa d0be 6693 93bd 067e 8dbe 9c46 a13e
000001d0: 235a 81be fdd0 923d 889b 7f3d ddbf 4cbe
000001e0: 9ef0 853e 48d9 7dbe 99c5 fabd b713 0ebe
000001f0: 48d2 313e cbc1 d33d 6d66 d83d 63b0 6e3d
00000200: bcbc fe3e a827 fd3b 0802 9f3d 0166 c33d
00000210: a63d 073f 549f b23e e894 b03b 7f1f 283d
00000220: 75bd 8b3d abdc c03e fa8e f23d a983 3fbe
00000230: f05a c03e 32da 31be 3a87 503e 48df b83e
00000240: 092a 82be 8bf3 d93d b4ca 2abd 8708 5ebc
00000250: 0877 10be a200 f7bd 68ce edbd 931b f7b7
00000260: 6d3f 9c3e 6acb dd3d 78b7 843b 1859 c9bd
00000270: acb9 0bbe c6e4 42bd ada9 053e e85c 70bd
00000280: 4f3c 20be f4ec 2bbe 968d 7b3e fcf0 0ebe
00000290: 5151 8b3d e1e9 8fbd 4504 7dbe de17 8b3e
000002a0: 6888 283c 2548 793e 22d9 4b3e 8ae4 2e3e
000002b0: c2e3 dabe c47d b5bd 2369 263e c2ce 54be
000002c0: 0cd5 98be 2513 bbbe 191b 1dbd 5bf2 73bd
000002d0: 0df4 8f3d 1cac 95be d870 35bd 8463 663d
000002e0: 6005 9d3a 51d9 cdbc 8cc2 e3bd bc79 e9bd
000002f0: 4aed 36bd a27d febd b06c aabd 4c16 2e3e
00000300: e090 a73e b356 9a3d f64f aabb f9f5 f83e
00000310: 1705 e83e e433 583e da17 89be 4b9e 423e
00000320: 265d 273e f57e 52be 6eee 893e aed4 7cbc
00000330: db46 033f 23f6 153d c7a2 5dbe 90da 923e
00000340: 2feb dfbe 2457 b03e fe23 9d3e 4f8b 183e
00000350: e036 42be ecad 90be 452a 303d 4091 91bd
00000360: 7711 9a3e 9c43 a6be 158e bdbd e830 1abe
00000370: dac1 933e 42eb 703c ce3b d13d 1a64 97be
00000380: 7fbd 2bbe 8d2d 553e 2da7 31be 3a4b 6dbd
00000390: 7732 fc3d b700 243e 34a8 7bbe cbba c0be
000003a0: ee35 05be a659 a6b9 a6d2 bbbd e345 9fbe
000003b0: 2238 113d f39e 7739 9392 96be 58a6 fabd
000003c0: 98a5 fc3e cfcc 8b3e 51df c73d ebf5 42be
000003d0: 2177 9a3e b258 fa3d 4098 74bd 7544 053d
000003e0: 111a 83be 2a3f f43d 4735 8abc e32d 2f3d
000003f0: c6bf 58bd 4ec5 0c3d 0c77 853d 98cf 03bd
-0.31357458 -0.13645062 0.106534556 0.15906459 0.11667504 1.0015436 0.031932417 0.1399177
0.18328564 0.22351521 -0.34942943 0.17887597 0.24543715 -0.25266716 -0.02719247 0.47541746
-0.26114246 0.19967288 0.39623252 -0.09527684 -0.03749408 -0.12591524 -0.48151425 0.13063219
0.61210483 0.063870706 0.1539745 0.13794726 -0.23856622 -0.023440056 0.15916319 0.30013195
0.067332216 -0.21624388 -0.2645776 0.003946497 0.16052625 -0.3861799 0.13696608 -0.16652252
-0.25770435 -0.29697832 -0.17697665 0.07039852 0.29774317 -0.120507255 0.04081687 0.023711419
-0.12850624 0.21216704 0.13683142 0.29189453 -0.06945432 0.2799003 0.17777245 -0.3308851
-0.1362483 -0.2150639 -0.02900471 -0.04312227 0.19965081 0.041828282 -0.09281241 -0.021805597
-0.40487114 0.043780982 -0.26939818 0.0060574454 -0.15990469 0.38480687 0.0765694 0.16970192
-0.046941143 0.05072561 -0.19887276 0.5018255 -0.23472422 -0.01717285 0.2520605 -0.21211328
-0.25352377 -0.30645066 0.0008793756 -0.04457995 0.42596915 -0.1954754 -0.26501033 0.087082505
-0.08350524 0.03356386 0.037090592 -0.19819058 -0.2939169 -0.33084768 -0.071639486 0.33584604
0.26209536 0.38647002 -0.07375666 0.27992365 0.3018409 -0.06152776 0.41394782 -0.17808631
-0.06726774 -0.32534572 0.02144874 0.24633886 0.4832501 0.059133496 0.29658383 0.016702639
-0.40815845 -0.072058484 -0.2763521 0.31499183 -0.2526408 0.071687676 0.062404186 -0.19995065
0.2616014 -0.24789917 -0.1224472 -0.13874708 0.17365372 0.103396975 0.10566411 0.058273684
0.49753368 0.0077256747 0.07764059 0.0954094 0.52828443 0.34887183 0.0053888448 0.041045662
0.068232454 0.37668356 0.11843677 -0.18702568 0.3756938 -0.17368391 0.20364085 0.3610785
-0.25422695 0.10642155 -0.04169722 -0.013551838 -0.14107907 -0.120606676 -0.116116345 -2.9457535e-05
0.3051714 0.10829814 0.0040501915 -0.098314464 -0.13645047 -0.047581457 0.13053007 -0.058682352
-0.15648006 -0.16789609 0.2456573 -0.13959116 0.06802619 -0.07027031 -0.2470866 0.27166647
0.010286428 0.24343927 0.19907048 0.17079368 -0.4275189 -0.088618785 0.16251044 -0.20781997
-0.29850042 -0.36538044 -0.03835592 -0.0595573 0.07028971 -0.29232872 -0.04429707 0.05624725
0.0011979751 -0.025128039 -0.11121091 -0.11400172 -0.04465989 -0.12426306 -0.08321512 0.17000693
0.32727718 0.07536068 -0.0051975204 0.48625162 0.45316383 0.21113545 -0.2677601 0.19005696
0.16344127 -0.20556243 0.2693972 -0.015431566 0.5127999 0.036611687 -0.21644126 0.28682375
-0.43734118 0.34441483 0.30691522 0.14896892 -0.18966246 -0.28257692 0.04300906 -0.07107782
0.3009145 -0.32473457 -0.092556156 -0.15057719 0.28858835 0.014704527 0.10216485 -0.2956856
-0.16771506 0.20818157 -0.17348929 -0.05793307 0.12314313 0.16015898 -0.24575883 -0.37642512
-0.13008854 -0.0003172878 -0.091710374 -0.31108007 0.035453923 0.00023614969 -0.29408702 -0.12238759
0.49345088 0.27304694 0.09759391 -0.19039123 0.30169013 0.122239485 -0.05971551 0.03253599
-0.25605825 0.1192611 -0.016871108 0.04276837 -0.052917264 0.034367852 0.06516847 -0.0321804

rnn.bias_ih_l0 f4 [32]
00000000: 2e16 b83a 1ad4 13be a068 de3d 6526 0c3e
00000010: 6611 3b3e 4114 223e b9f6 c1bd 4657 a73e
00000020: 8079 663d 2f7b 413e ca55 203e de87 ddbd
00000030: 1046 1e3c 63ab e43c 289f a3bb fa42 96bc
00000040: 4d4d a6bd ec51 6fbe a5a1 ba3c 410d b3bd
00000050: ad79 483e 1cf4 fe3d eb7f 2cbe 038d 4a3e
00000060: 9659 b63c 687b 823d 5de8 493e cef3 19bd
00000070: ae17 093e cada 0dbe 50f7 07bd b7d9 10be
0.0014044696 -0.14436379 0.108597994 0.13686521 0.18268356 0.15828039 -0.09470887 0.32683772
0.056268215 0.18894647 0.15657726 -0.1081693 0.009660259 0.027913755 -0.004993338 -0.018342484
-0.08120213 -0.23371094 0.022782156 -0.08742762 0.19577666 0.12448904 -0.16845672 0.19780354
0.022259515 0.06371194 0.19717546 -0.037586026 0.1338794 -0.13852993 -0.03319484 -0.14145552

rnn.bias_hh_l0 f4 [32]
00000000: ab8b 923c c53d 0e3c 117b 883d ac4f ac3d
00000010: 25f7 19bd 26ae 8b3e ea91 8dbe 2bbc fd3c
00000020: 78c9 29bc dc1b dc3c 2e8a 053d 93d9 24be
00000030: bb88 783d 662b 7ebd 9285 9b3d cb24 f7bc
00000040: a24d f73d 8bd4 c23c 0e52 123d 8f21 87bd
00000050: 1312 1f3e 2e7f 37be 1632 933d 995c 783d
00000060: 75e5 9bbd 5e3c a63d 8762 1a3e d2f7 d43d
00000070: 4aed 1dbe 4540 72bd 77ba 5d3e 8ec7 53bd
0.017888865 0.008681719 0.06664098 0.08413634 -0.03758921 0.27281302 -0.27650386 0.030973515
-0.010362975 0.026868753 0.03260248 -0.16098623 0.06067727 -0.062053107 0.07593836 -0.030168911
0.12075354 0.023782989 0.035722785 -0.06598198 0.15534239 -0.17919609 0.071872875 0.060635183
-0.07612125 0.08116983 0.15076648 0.103988305 -0.1542255 -0.059143323 0.21653162 -0.051703982

out.weight f4 [1, 32]
00000000: c820 8abd 627c 083e b91f 14bc 449b d7bd
00000010: 9f5a d1bd 31eb c2bd 82ba bfbd ffdf f13d
00000020: 9e53 97bc 194d a0bd cf46 203d c70a 90bd
00000030: eabf aebd 37aa f23c 6c51 a23d 17f1 08be
00000040: 2553 333e 433d 553d 720b 82bc 68e5 e33c
00000050: 3329 b73d d073 af3c 61c8 313c 0319 66bc
00000060: fe28 e2bd ab63 593c a3f3 4dbc bb01 7c3d
00000070: 5744 0bbd 0d8b 643d 5664 a83c f4e0 6dbd
-0.06744534 0.13328698 -0.009040766 -0.105276614 -0.10222363 -0.095175155 -0.093617454 0.11810302
-0.018472489 -0.07827205 0.03913003 -0.070333056 -0.085326985 0.02962218 0.07925686 -0.13373218
0.17512186 0.052060377 -0.015874598 0.02781935 0.08943405 0.021417528 0.010850997 -0.014044049
-0.11042975 0.013268392 -0.012570295 0.061525088 -0.03400072 0.05579667 0.020555656 -0.05807586
